CreateNet_rccnet_2alexnet(
  (alexnet1_1_A): Sequential(
    (0): Conv2d(3, 64, kernel_size=(11, 11), stride=(4, 4), padding=(2, 2))
    (1): ReLU(inplace=True)
    (2): MaxPool2d(kernel_size=3, stride=2, padding=0, dilation=1, ceil_mode=False)
    (3): Conv2d(64, 192, kernel_size=(5, 5), stride=(1, 1), padding=(2, 2))
    (4): ReLU(inplace=True)
    (5): MaxPool2d(kernel_size=3, stride=2, padding=0, dilation=1, ceil_mode=False)
    (6): Conv2d(192, 384, kernel_size=(3, 3), stride=(1, 1), padding=(1, 1))
    (7): ReLU(inplace=True)
    (8): Conv2d(384, 256, kernel_size=(3, 3), stride=(1, 1), padding=(1, 1))
    (9): ReLU(inplace=True)
    (10): Conv2d(256, 256, kernel_size=(3, 3), stride=(1, 1), padding=(1, 1))
    (11): ReLU(inplace=True)
  )
  (alexnet1_1_B): Sequential(
    (0): Conv2d(3, 64, kernel_size=(11, 11), stride=(4, 4), padding=(2, 2))
    (1): ReLU(inplace=True)
    (2): MaxPool2d(kernel_size=3, stride=2, padding=0, dilation=1, ceil_mode=False)
    (3): Conv2d(64, 192, kernel_size=(5, 5), stride=(1, 1), padding=(2, 2))
    (4): ReLU(inplace=True)
    (5): MaxPool2d(kernel_size=3, stride=2, padding=0, dilation=1, ceil_mode=False)
    (6): Conv2d(192, 384, kernel_size=(3, 3), stride=(1, 1), padding=(1, 1))
    (7): ReLU(inplace=True)
    (8): Conv2d(384, 256, kernel_size=(3, 3), stride=(1, 1), padding=(1, 1))
    (9): ReLU(inplace=True)
    (10): Conv2d(256, 256, kernel_size=(3, 3), stride=(1, 1), padding=(1, 1))
    (11): ReLU(inplace=True)
  )
  (maxpool): MaxPool2d(kernel_size=3, stride=2, padding=0, dilation=1, ceil_mode=True)
  (lstm_A): LSTMCell(256, 128)
  (lstm_B): LSTMCell(256, 128)
  (fc): Sequential(
    (0): Linear(in_features=256, out_features=64, bias=True)
    (1): Sigmoid()
    (2): Linear(in_features=64, out_features=3, bias=True)
    (3): Sigmoid()
  )
)
json_stats: {"train_loss": 7.988419389668852, "val_loss": 5.219404388815165, "epoch": 0, "lr": 3e-05, "best_val_loss": 5.219404388815165, "mean": 5.219404388815165, "median": 3.9831173419952393, "trimean": 4.284465044736862, "bst25": 1.269508028626442, "wst25": 11.233740234375, "pct95": 12.993744182586633}
json_stats: {"train_loss": 5.504380343183875, "val_loss": 0, "epoch": 1, "lr": 3e-05, "best_val_loss": 5.219404388815165, "mean": 5.219404388815165, "median": 3.9831173419952393, "trimean": 4.284465044736862, "bst25": 1.269508028626442, "wst25": 11.233740234375, "pct95": 12.993744182586633}
…
